…
I0113 23:38:16.167755 18493 net.cpp:275] The NetState phase (0) differed from the phase (1) specified by a rule in layer mnist
I0113 23:38:16.167798 18493 net.cpp:275] The NetState phase (0) differed from the phase (1) specified by a rule in layer classification_stats
I0113 23:38:16.167927 18493 net.cpp:39] Initializing net from parameters: 
name: "LeNet"
layers {
  top: "data"
  top: "label"
  name: "mnist"
  type: DATA
  data_param {
    source: "examples/mnist/mnist_train_lmdb"
    batch_size: 64
    backend: LMDB
  }
  include {
    phase: TRAIN
  }
  transform_param {
    scale: 0.00390625
  }
}
layers {
  bottom: "data"
  top: "conv1"
  name: "conv1"
  type: CONVOLUTION
  blobs_lr: 1
  blobs_lr: 2
  convolution_param {
    num_output: 20
    kernel_size: 5
    stride: 1
    weight_filler {
      type: "xavier"
    }
    bias_filler {
      type: "constant"
    }
  }
}
layers {
  bottom: "conv1"
  top: "pool1"
  name: "pool1"
  type: POOLING
  pooling_param {
    pool: MAX
    kernel_size: 2
    stride: 2
  }
}
layers {
  bottom: "pool1"
  top: "conv2"
  name: "conv2"
  type: CONVOLUTION
  blobs_lr: 1
  blobs_lr: 2
  convolution_param {
    num_output: 50
    kernel_size: 5
    stride: 1
    weight_filler {
      type: "xavier"
    }
    bias_filler {
      type: "constant"
    }
  }
}
layers {
  bottom: "conv2"
  top: "pool2"
  name: "pool2"
  type: POOLING
  pooling_param {
    pool: MAX
    kernel_size: 2
    stride: 2
  }
}
layers {
  bottom: "pool2"
  top: "ip1"
  name: "ip1"
  type: INNER_PRODUCT
  blobs_lr: 1
  blobs_lr: 2
  inner_product_param {
    num_output: 500
    weight_filler {
      type: "xavier"
    }
    bias_filler {
      type: "constant"
    }
  }
}
layers {
  bottom: "ip1"
  top: "ip1"
  name: "relu1"
  type: RELU
}
layers {
  bottom: "ip1"
  top: "ip2"
  name: "ip2"
  type: INNER_PRODUCT
  blobs_lr: 1
  blobs_lr: 2
  inner_product_param {
    num_output: 10
    weight_filler {
      type: "xavier"
    }
    bias_filler {
      type: "constant"
    }
  }
}
layers {
  bottom: "ip2"
  bottom: "label"
  top: "loss"
  name: "loss"
  type: SOFTMAX_LOSS
}
state {
  phase: TRAIN
}
I0113 23:38:16.168750 18493 net.cpp:56] Memory required for data: 0
I0113 23:38:16.168824 18493 net.cpp:67] Creating Layer mnist
I0113 23:38:16.168856 18493 net.cpp:356] mnist -> data
I0113 23:38:16.168901 18493 net.cpp:356] mnist -> label
I0113 23:38:16.168934 18493 net.cpp:96] Setting up mnist
I0113 23:38:16.169060 18493 data_layer.cpp:68] Opening lmdb examples/mnist/mnist_train_lmdb
I0113 23:38:16.169111 18493 data_layer.cpp:128] output data size: 64,1,28,28
I0113 23:38:16.169299 18493 base_data_layer.cpp:64] Initializing prefetch
I0113 23:38:16.169374 18493 base_data_layer.cpp:66] Prefetch initialized.
I0113 23:38:16.169396 18493 net.cpp:103] Top shape: 64 1 28 28 (50176)
I0113 23:38:16.169415 18493 net.cpp:103] Top shape: 64 1 1 1 (64)
I0113 23:38:16.169428 18493 net.cpp:113] Memory required for data: 200960
I0113 23:38:16.169461 18493 net.cpp:67] Creating Layer conv1
I0113 23:38:16.169479 18493 net.cpp:394] conv1 <- data
I0113 23:38:16.169525 18493 net.cpp:356] conv1 -> conv1
I0113 23:38:16.169555 18493 net.cpp:96] Setting up conv1
I0113 23:38:16.170166 18493 net.cpp:103] Top shape: 64 20 24 24 (737280)
I0113 23:38:16.170187 18493 net.cpp:113] Memory required for data: 3150080
I0113 23:38:16.170243 18493 net.cpp:67] Creating Layer pool1
I0113 23:38:16.170264 18493 net.cpp:394] pool1 <- conv1
I0113 23:38:16.170299 18493 net.cpp:356] pool1 -> pool1
I0113 23:38:16.170325 18493 net.cpp:96] Setting up pool1
I0113 23:38:16.170378 18493 net.cpp:103] Top shape: 64 20 12 12 (184320)
I0113 23:38:16.170397 18493 net.cpp:113] Memory required for data: 3887360
I0113 23:38:16.170423 18493 net.cpp:67] Creating Layer conv2
I0113 23:38:16.170442 18493 net.cpp:394] conv2 <- pool1
I0113 23:38:16.170469 18493 net.cpp:356] conv2 -> conv2
I0113 23:38:16.170493 18493 net.cpp:96] Setting up conv2
I0113 23:38:16.173070 18493 net.cpp:103] Top shape: 64 50 8 8 (204800)
I0113 23:38:16.173094 18493 net.cpp:113] Memory required for data: 4706560
I0113 23:38:16.173163 18493 net.cpp:67] Creating Layer pool2
I0113 23:38:16.173204 18493 net.cpp:394] pool2 <- conv2
I0113 23:38:16.173254 18493 net.cpp:356] pool2 -> pool2
I0113 23:38:16.173288 18493 net.cpp:96] Setting up pool2
I0113 23:38:16.173319 18493 net.cpp:103] Top shape: 64 50 4 4 (51200)
I0113 23:38:16.173342 18493 net.cpp:113] Memory required for data: 4911360
I0113 23:38:16.173368 18493 net.cpp:67] Creating Layer ip1
I0113 23:38:16.173390 18493 net.cpp:394] ip1 <- pool2
I0113 23:38:16.173418 18493 net.cpp:356] ip1 -> ip1
I0113 23:38:16.173454 18493 net.cpp:96] Setting up ip1
I0113 23:38:16.216148 18493 net.cpp:103] Top shape: 64 500 1 1 (32000)
I0113 23:38:16.216174 18493 net.cpp:113] Memory required for data: 5039360
I0113 23:38:16.216209 18493 net.cpp:67] Creating Layer relu1
I0113 23:38:16.216227 18493 net.cpp:394] relu1 <- ip1
I0113 23:38:16.216255 18493 net.cpp:345] relu1 -> ip1 (in-place)
I0113 23:38:16.216311 18493 net.cpp:96] Setting up relu1
I0113 23:38:16.216326 18493 net.cpp:103] Top shape: 64 500 1 1 (32000)
I0113 23:38:16.216354 18493 net.cpp:113] Memory required for data: 5167360
I0113 23:38:16.216373 18493 net.cpp:67] Creating Layer ip2
I0113 23:38:16.216398 18493 net.cpp:394] ip2 <- ip1
I0113 23:38:16.216434 18493 net.cpp:356] ip2 -> ip2
I0113 23:38:16.216466 18493 net.cpp:96] Setting up ip2
I0113 23:38:16.217026 18493 net.cpp:103] Top shape: 64 10 1 1 (640)
I0113 23:38:16.217046 18493 net.cpp:113] Memory required for data: 5169920
I0113 23:38:16.217077 18493 net.cpp:67] Creating Layer loss
I0113 23:38:16.217097 18493 net.cpp:394] loss <- ip2
I0113 23:38:16.217160 18493 net.cpp:394] loss <- label
I0113 23:38:16.217186 18493 net.cpp:356] loss -> loss
I0113 23:38:16.217216 18493 net.cpp:96] Setting up loss
I0113 23:38:16.217249 18493 net.cpp:103] Top shape: 1 1 1 1 (1)
I0113 23:38:16.217267 18493 net.cpp:109]     with loss weight 1
I0113 23:38:16.217305 18493 net.cpp:113] Memory required for data: 5169924
I0113 23:38:16.217330 18493 net.cpp:170] loss needs backward computation.
I0113 23:38:16.217347 18493 net.cpp:170] ip2 needs backward computation.
I0113 23:38:16.217361 18493 net.cpp:170] relu1 needs backward computation.
I0113 23:38:16.217375 18493 net.cpp:170] ip1 needs backward computation.
…
I0113 23:38:16.217978 18493 solver.cpp:153] Creating test net (#0) specified by net file: examples/mnist/lenet_train_test_with_class_stats.prototxt
I0113 23:38:16.218041 18493 net.cpp:275] The NetState phase (1) differed from the phase (0) specified by a rule in layer mnist
I0113 23:38:16.218188 18493 net.cpp:39] Initializing net from parameters: 
name: "LeNet"
layers {
  top: "data"
  top: "label"
  name: "mnist"
  type: DATA
  data_param {
    source: "examples/mnist/mnist_test_lmdb"
    batch_size: 1000
    backend: LMDB
  }
  include {
    phase: TEST
  }
  transform_param {
    scale: 0.00390625
  }
}
layers {
  bottom: "data"
  top: "conv1"
  name: "conv1"
  type: CONVOLUTION
  blobs_lr: 1
  blobs_lr: 2
  convolution_param {
    num_output: 20
    kernel_size: 5
    stride: 1
    weight_filler {
      type: "xavier"
    }
    bias_filler {
      type: "constant"
    }
  }
}
layers {
  bottom: "conv1"
  top: "pool1"
  name: "pool1"
  type: POOLING
  pooling_param {
    pool: MAX
    kernel_size: 2
    stride: 2
  }
}
layers {
  bottom: "pool1"
  top: "conv2"
  name: "conv2"
  type: CONVOLUTION
  blobs_lr: 1
  blobs_lr: 2
  convolution_param {
    num_output: 50
    kernel_size: 5
    stride: 1
    weight_filler {
      type: "xavier"
    }
    bias_filler {
      type: "constant"
    }
  }
}
layers {
  bottom: "conv2"
  top: "pool2"
  name: "pool2"
  type: POOLING
  pooling_param {
    pool: MAX
    kernel_size: 2
    stride: 2
  }
}
layers {
  bottom: "pool2"
  top: "ip1"
  name: "ip1"
  type: INNER_PRODUCT
  blobs_lr: 1
  blobs_lr: 2
  inner_product_param {
    num_output: 500
    weight_filler {
      type: "xavier"
    }
    bias_filler {
      type: "constant"
    }
  }
}
layers {
  bottom: "ip1"
  top: "ip1"
  name: "relu1"
  type: RELU
}
layers {
  bottom: "ip1"
  top: "ip2"
  name: "ip2"
  type: INNER_PRODUCT
  blobs_lr: 1
  blobs_lr: 2
  inner_product_param {
    num_output: 10
    weight_filler {
      type: "xavier"
    }
    bias_filler {
      type: "constant"
    }
  }
}
layers {
  bottom: "ip2"
  bottom: "label"
  top: "accuracy_per_class"
  top: "average_precision_per_class"
  top: "average_accuracy"
  name: "classification_stats"
  type: CLASSIFICATION_STATS
  include {
    phase: TEST
  }
  classification_stats_param {
    num_classes: 10
  }
}
layers {
  bottom: "ip2"
  bottom: "label"
  top: "loss"
  name: "loss"
  type: SOFTMAX_LOSS
}
state {
  phase: TEST
}
I0113 23:38:16.219246 18493 net.cpp:56] Memory required for data: 0
I0113 23:38:16.219301 18493 net.cpp:67] Creating Layer mnist
I0113 23:38:16.219328 18493 net.cpp:356] mnist -> data
I0113 23:38:16.219365 18493 net.cpp:356] mnist -> label
I0113 23:38:16.219394 18493 net.cpp:96] Setting up mnist
I0113 23:38:16.219466 18493 data_layer.cpp:68] Opening lmdb examples/mnist/mnist_test_lmdb
I0113 23:38:16.219501 18493 data_layer.cpp:128] output data size: 1000,1,28,28
I0113 23:38:16.222626 18493 base_data_layer.cpp:64] Initializing prefetch
I0113 23:38:16.222683 18493 base_data_layer.cpp:66] Prefetch initialized.
I0113 23:38:16.222705 18493 net.cpp:103] Top shape: 1000 1 28 28 (784000)
I0113 23:38:16.222751 18493 net.cpp:103] Top shape: 1000 1 1 1 (1000)
I0113 23:38:16.222765 18493 net.cpp:113] Memory required for data: 3140000
I0113 23:38:16.222800 18493 net.cpp:67] Creating Layer label_mnist_1_split
I0113 23:38:16.222827 18493 net.cpp:394] label_mnist_1_split <- label
I0113 23:38:16.222861 18493 net.cpp:356] label_mnist_1_split -> label_mnist_1_split_0
I0113 23:38:16.222898 18493 net.cpp:356] label_mnist_1_split -> label_mnist_1_split_1
I0113 23:38:16.222923 18493 net.cpp:96] Setting up label_mnist_1_split
I0113 23:38:16.222946 18493 net.cpp:103] Top shape: 1000 1 1 1 (1000)
I0113 23:38:16.222961 18493 net.cpp:103] Top shape: 1000 1 1 1 (1000)
I0113 23:38:16.222975 18493 net.cpp:113] Memory required for data: 3148000
I0113 23:38:16.223002 18493 net.cpp:67] Creating Layer conv1
I0113 23:38:16.223022 18493 net.cpp:394] conv1 <- data
I0113 23:38:16.223050 18493 net.cpp:356] conv1 -> conv1
I0113 23:38:16.223079 18493 net.cpp:96] Setting up conv1
I0113 23:38:16.223186 18493 net.cpp:103] Top shape: 1000 20 24 24 (11520000)
I0113 23:38:16.223207 18493 net.cpp:113] Memory required for data: 49228000
I0113 23:38:16.223245 18493 net.cpp:67] Creating Layer pool1
I0113 23:38:16.223266 18493 net.cpp:394] pool1 <- conv1
I0113 23:38:16.223294 18493 net.cpp:356] pool1 -> pool1
I0113 23:38:16.223316 18493 net.cpp:96] Setting up pool1
I0113 23:38:16.223340 18493 net.cpp:103] Top shape: 1000 20 12 12 (2880000)
I0113 23:38:16.223358 18493 net.cpp:113] Memory required for data: 60748000
I0113 23:38:16.223386 18493 net.cpp:67] Creating Layer conv2
I0113 23:38:16.223422 18493 net.cpp:394] conv2 <- pool1
I0113 23:38:16.223449 18493 net.cpp:356] conv2 -> conv2
I0113 23:38:16.223477 18493 net.cpp:96] Setting up conv2
I0113 23:38:16.226307 18493 net.cpp:103] Top shape: 1000 50 8 8 (3200000)
I0113 23:38:16.226330 18493 net.cpp:113] Memory required for data: 73548000
I0113 23:38:16.226390 18493 net.cpp:67] Creating Layer pool2
I0113 23:38:16.226419 18493 net.cpp:394] pool2 <- conv2
I0113 23:38:16.226457 18493 net.cpp:356] pool2 -> pool2
I0113 23:38:16.226490 18493 net.cpp:96] Setting up pool2
I0113 23:38:16.226518 18493 net.cpp:103] Top shape: 1000 50 4 4 (800000)
I0113 23:38:16.226546 18493 net.cpp:113] Memory required for data: 76748000
I0113 23:38:16.226565 18493 net.cpp:67] Creating Layer ip1
I0113 23:38:16.226584 18493 net.cpp:394] ip1 <- pool2
I0113 23:38:16.226613 18493 net.cpp:356] ip1 -> ip1
I0113 23:38:16.226645 18493 net.cpp:96] Setting up ip1
I0113 23:38:16.271944 18493 net.cpp:103] Top shape: 1000 500 1 1 (500000)
I0113 23:38:16.271975 18493 net.cpp:113] Memory required for data: 78748000
I0113 23:38:16.272011 18493 net.cpp:67] Creating Layer relu1
I0113 23:38:16.272030 18493 net.cpp:394] relu1 <- ip1
I0113 23:38:16.272097 18493 net.cpp:345] relu1 -> ip1 (in-place)
I0113 23:38:16.272135 18493 net.cpp:96] Setting up relu1
I0113 23:38:16.272155 18493 net.cpp:103] Top shape: 1000 500 1 1 (500000)
I0113 23:38:16.272181 18493 net.cpp:113] Memory required for data: 80748000
I0113 23:38:16.272208 18493 net.cpp:67] Creating Layer ip2
I0113 23:38:16.272236 18493 net.cpp:394] ip2 <- ip1
I0113 23:38:16.272260 18493 net.cpp:356] ip2 -> ip2
I0113 23:38:16.272294 18493 net.cpp:96] Setting up ip2
I0113 23:38:16.272913 18493 net.cpp:103] Top shape: 1000 10 1 1 (10000)
I0113 23:38:16.272935 18493 net.cpp:113] Memory required for data: 80788000
I0113 23:38:16.272964 18493 net.cpp:67] Creating Layer ip2_ip2_0_split
I0113 23:38:16.272986 18493 net.cpp:394] ip2_ip2_0_split <- ip2
I0113 23:38:16.273013 18493 net.cpp:356] ip2_ip2_0_split -> ip2_ip2_0_split_0
I0113 23:38:16.273042 18493 net.cpp:356] ip2_ip2_0_split -> ip2_ip2_0_split_1
I0113 23:38:16.273071 18493 net.cpp:96] Setting up ip2_ip2_0_split
I0113 23:38:16.273092 18493 net.cpp:103] Top shape: 1000 10 1 1 (10000)
I0113 23:38:16.273109 18493 net.cpp:103] Top shape: 1000 10 1 1 (10000)
I0113 23:38:16.273138 18493 net.cpp:113] Memory required for data: 80868000
I0113 23:38:16.273161 18493 net.cpp:67] Creating Layer classification_stats
I0113 23:38:16.273179 18493 net.cpp:394] classification_stats <- ip2_ip2_0_split_0
I0113 23:38:16.273213 18493 net.cpp:394] classification_stats <- label_mnist_1_split_0
I0113 23:38:16.273236 18493 net.cpp:356] classification_stats -> accuracy_per_class
I0113 23:38:16.273264 18493 net.cpp:356] classification_stats -> average_precision_per_class
I0113 23:38:16.273294 18493 net.cpp:356] classification_stats -> average_accuracy
I0113 23:38:16.273322 18493 net.cpp:96] Setting up classification_stats
I0113 23:38:16.273344 18493 net.cpp:103] Top shape: 1 10 1 1 (10)
I0113 23:38:16.273363 18493 net.cpp:103] Top shape: 1 10 1 1 (10)
I0113 23:38:16.273376 18493 net.cpp:103] Top shape: 1 1 1 1 (1)
I0113 23:38:16.273390 18493 net.cpp:113] Memory required for data: 80868084
I0113 23:38:16.273416 18493 net.cpp:67] Creating Layer loss
I0113 23:38:16.273437 18493 net.cpp:394] loss <- ip2_ip2_0_split_1
I0113 23:38:16.273458 18493 net.cpp:394] loss <- label_mnist_1_split_1
I0113 23:38:16.273481 18493 net.cpp:356] loss -> loss
I0113 23:38:16.273507 18493 net.cpp:96] Setting up loss
I0113 23:38:16.273535 18493 net.cpp:103] Top shape: 1 1 1 1 (1)
I0113 23:38:16.273552 18493 net.cpp:109]     with loss weight 1
I0113 23:38:16.273574 18493 net.cpp:113] Memory required for data: 80868088
I0113 23:38:16.273591 18493 net.cpp:170] loss needs backward computation.
I0113 23:38:16.273607 18493 net.cpp:172] classification_stats does not need backward computation.
I0113 23:38:16.273620 18493 net.cpp:170] ip2_ip2_0_split needs backward computation.
…
